tests/torch/tmp.onnx (onnx, 6345 bytes, 10 tensors)

nncf_module.conv1.weight f4 [15, 3, 3, 3]
0	0x3e11f21c	0.14252514
1	0xbe0a51f6	-0.13507828
2	0x3cb8924c	0.022530697
3	0x3d1a9b99	0.037746046
4	0x3e3a4cd0	0.18193364
5	0xbe418a22	-0.1890035
6	0x3e1ed2d4	0.15510112
7	0x3ddcb99c	0.1077759
8	0xbe2a1f57	-0.16613518
9	0x3dea0865	0.114273824
10	0x3e176295	0.147837
11	0x3dba592b	0.09099039
12	0xbdf40705	-0.11915401
13	0x3e3bdf0a	0.18346801
14	0x3e0dc887	0.13846026
15	0xbe245d03	-0.16051106
16	0x3e109c9c	0.14122242
17	0x37f2df3c	2.89526e-05
18	0xbe3a743e	-0.18208405
19	0x3e227757	0.15865837
20	0x3cff6c3d	0.031179542
21	0xbd83b07b	-0.06430145
22	0x3d98f4b7	0.07468551
23	0xbbd4a40c	-0.0064892825
24	0x3dafa7da	0.08576937
25	0x3e2ed42a	0.17073122
26	0x3c3be980	0.011469245
27	0xbdff6932	-0.12471236
28	0x3dd8a506	0.10578351
29	0xbd74bd5b	-0.059750896
30	0xbd9c4b91	-0.07631601
31	0x3ca93320	0.020654261
32	0xbe2dcab7	-0.16971861
33	0x3e2fc902	0.17166522
34	0x3d04ef68	0.032454878
35	0xbd92e2cd	-0.07172165
36	0xbda7cfa3	-0.081939004
37	0x3e3866af	0.1800792
38	0xbdf13b6e	-0.117789134
39	0x3dd9e23b	0.10638853
40	0xbcc0d976	-0.023541193
41	0x3e1d7341	0.15375997
42	0xbdecc60f	-0.11561214
43	0x3dcf533c	0.101232976
44	0x3e331988	0.17490208
45	0x3d962531	0.073313124
46	0x3e13e502	0.14442828
47	0xbcf95a8a	-0.03043868
48	0x3b722e91	0.0036954025
49	0xbd7d70ad	-0.061875034
50	0xbca5d985	-0.020245323
51	0xbc064943	-0.008196178
52	0x3b7d4721	0.0038647132
53	0xbc874625	-0.01651294
54	0x3d6e7ebe	0.05822634
55	0x3c2ff432	0.010739373
56	0xbe204723	-0.15652137
57	0xbccb0506	-0.024782669
58	0xbe159954	-0.14609271
59	0xbdd95f0d	-0.106138326
60	0xbe379120	-0.17926455
61	0xbddac030	-0.10681188
62	0xbdada534	-0.084787756
63	0x3ca0e7a2	0.019641701
64	0x3e03f1eb	0.12885253
65	0x3db1fea6	0.086911485
66	0xbe221c81	-0.15831186
67	0xbd081e2b	-0.033231895
68	0x3dba9a56	0.091114685
69	0x3c72a87c	0.014810678
70	0xbe008dbc	-0.12554067
71	0x3be08e30	0.0068528876
72	0xbd03ebfc	-0.032207474
73	0xbe3302e5	-0.17481573
74	0xbe2ee63f	-0.1708002
75	0x3e3de01b	0.1854252
76	0x3dfb6a6e	0.12276159
77	0xbd9a29c4	-0.075274974
78	0x3e3a72f6	0.18207917
79	0xbe24de97	-0.16100536
80	0x3d077641	0.03307176
81	0x3e38bba8	0.18040335
82	0xbd4f7b1e	-0.050654523
83	0xbd79aa2b	-0.0609533
84	0xbe07bbfa	-0.13255301
85	0xbd00575e	-0.03133332
86	0xbcefb4a3	-0.029260939
87	0x3dd5ce6b	0.10439762
88	0xbdab7676	-0.08372204
89	0xbddef5fb	-0.10886761
90	0xbe370f9d	-0.1787705
91	0x3e19e803	0.15029912
92	0x3cbb0fbe	0.022834655
93	0xbd69911d	-0.057023156
94	0xbcdb31e0	-0.02675718
95	0xbe0d0859	-0.13772716
96	0x3c5d4939	0.013506227
97	0xbcaf9f78	-0.021438345
98	0xbe167998	-0.14694822
99	0x3cfd1fba	0.030898917
100	0xbd85c6d8	-0.06532067
101	0xbdf2eb44	-0.118612796
102	0x3d76c9a3	0.06025089
103	0x3de34094	0.11096302
104	0x3d802b74	0.06258288
105	0xbc36e921	-0.011163981
106	0x3dc0aec6	0.094083354
107	0xbcaf3210	-0.021386176
108	0x3e3d2d8c	0.18474406
109	0x3dd24410	0.10266888
110	0x3dbace68	0.091214
111	0x3d0bf509	0.03416923
112	0x3e06f4c1	0.13179304
113	0xbdea7c6b	-0.11449512
114	0xbd3ab58e	-0.0455833
115	0x3e0678ea	0.13132063
116	0x3d540c8b	0.051769774
117	0xbe1a97c9	-0.15096964
118	0xbe29ac4b	-0.16569631
119	0x3d8d08cb	0.06886443
120	0xbce1e7f9	-0.027576433
121	0xbdd02458	-0.10163182
122	0x3e122fca	0.14276043
123	0x3d2f8057	0.042847004
124	0xbc999cea	-0.01875158
125	0x3d6412c2	0.05568195
126	0x3dec1f90	0.115294576
127	0x3d0dcfb0	0.034621894
128	0x3d93138d	0.071814634
129	0xbe402a5d	-0.1876616
130	0xbd7e3b91	-0.062068526
131	0x3e023074	0.12713796
132	0xbc24ddd8	-0.010062657
133	0x3e15b3da	0.14619389
134	0x3e2d5a7f	0.16929053
135	0xbd34d1ff	-0.04414558
136	0xbdb79584	-0.08964065
137	0x3e26e641	0.16298772
138	0xbdbd6c03	-0.09249117
139	0x3e32df62	0.17468026
140	0xbe3a6541	-0.18202688
141	0xbcfb9777	-0.030711873
142	0x3d7c5719	0.0616065
143	0xbe239d5b	-0.15977995
144	0xbdfc3686	-0.12315087
145	0x3d4d9264	0.050188437
146	0x3d0175a9	0.03160635
147	0x3d1e5518	0.03865537
148	0x3c5a9122	0.013340266
149	0xbd2c8b06	-0.04212477
150	0xbcf24289	-0.029572742
151	0xbd016b07	-0.03159621
152	0x3d94f961	0.07274128
153	0x3d4cc447	0.049991872
154	0x3d8f1448	0.0698629
155	0x3c430754	0.011903603
156	0xbc73aa77	-0.014872185
157	0xbde99ee9	-0.11407263
158	0xbe303ab7	-0.17209898
159	0xbccd720f	-0.025078801
160	0x3e4418d3	0.19150095
161	0xb9468324	-0.00018931605
162	0x3dc17876	0.09446804
163	0xbe437708	-0.19088376
164	0xbe22c01f	-0.15893601
165	0x3e11439e	0.1418595
166	0x3b07c7f3	0.0020718544
167	0xbd564aab	-0.052317303
168	0xbd9fa7b8	-0.07795662
169	0x3dfbba09	0.12291343
170	0x3e102885	0.14077957
171	0x3cb9841d	0.022646004
172	0xbe29736b	-0.16547935
173	0x3da7d1a5	0.081942834
174	0xbe2c9efc	-0.16857523
175	0x3dd96166	0.106142804
176	0xbe42ea1c	-0.19034618
177	0xbdc64943	-0.09681942
178	0x3e44e012	0.19226101
179	0x3dfe9f54	0.12432733
180	0xbcda2b22	-0.026631895
181	0x3d1f1ea3	0.038847577
182	0x3e028ffb	0.12750237
183	0xbc639483	-0.013890388
184	0xbe3457d8	-0.17611635
185	0x3d9583d5	0.073005356
186	0xbc795e64	-0.015220258
187	0x3cdf7c55	0.027280966
188	0x3e18d908	0.14926541
189	0x3e364647	0.17800246
190	0x3d2a7db5	0.04162379
191	0xbe0a5c47	-0.13511764
192	0x3e08e7ef	0.13369726
193	0xbe065688	-0.13118947
194	0x3dda2fa5	0.10653619
195	0xbdd41029	-0.10354645
196	0x3e25bf47	0.16186248
197	0xbdafd272	-0.08585061
198	0xbe0af984	-0.13571745
199	0xbe2ea264	-0.17054135
200	0xbde0c049	-0.109741755
201	0xbe111465	-0.14167936
202	0xbe3c10f3	-0.1836584
203	0xbdc251ee	-0.09488283
204	0xbc767e2c	-0.01504473
205	0x3e29c09f	0.16577385
206	0x3d98b709	0.07456786
207	0xbd34a214	-0.044099882
208	0xbbc1c36f	-0.00591319
209	0xbe19b6cb	-0.15011136
210	0xbdf3fccf	-0.11913454
211	0x3df1c4cb	0.118051134
212	0x3d13d870	0.036095083
213	0x3de3e589	0.11127765
214	0x3c54e74f	0.012994601
215	0xbe213b91	-0.15745379
216	0xbdff5bd2	-0.12468685
217	0xbe2cc94d	-0.16873665
218	0x3d82bdca	0.06383856
219	0x3d20065f	0.039068576
220	0x3e1d7202	0.15375522
221	0xbe30e731	-0.17275693
222	0x3e2f63be	0.17127892
223	0xbe2415c6	-0.16023931
224	0xbd9167da	-0.07099886
225	0x3b4dbdbe	0.0031393613
226	0x3ddf2abf	0.10896825
227	0x3e32427a	0.17408171
228	0xbde7a34f	-0.113104455
229	0x3e3bec4a	0.18351856
230	0xbe0bc37b	-0.13648789
231	0xbe1cdbd8	-0.15318239
232	0x3da76ce2	0.081750646
233	0x3e056824	0.13028008
234	0x3c105b84	0.0088108815
235	0xbd8cd0a5	-0.06875733
236	0x3df69b8e	0.120413885
237	0xbd9d751e	-0.07688354
238	0xbd96ca63	-0.07362821
239	0x3e3d034a	0.18458286
240	0xbe35a3d5	-0.17738278
241	0xbdc211db	-0.09476062
242	0xbcdf3654	-0.027247585
243	0x3e30eeb4	0.17278558
244	0x3e27fe0f	0.1640551
245	0xbd9ec239	-0.07751889
246	0x3db9da89	0.090748854
247	0x3d6cae63	0.057783496
248	0xbe2280f8	-0.1586951
249	0x3e00084c	0.12503165
250	0xbe086054	-0.13317996
251	0xbdddd688	-0.10831934
252	0x3df35fd7	0.118835144
253	0x3d3b77d5	0.045768578
254	0xbcf9c3ab	-0.03048881
255	0x3b5022e3	0.0031759075

nncf_module.conv1.bias f4 [15]
0	0xbe1571d8	-0.14594209
1	0x3e3f1817	0.18661533
2	0x3c2ded28	0.0106156245
3	0xbc74ee2a	-0.014949361
4	0x3c43527b	0.01192152
5	0x3d1bca5f	0.038034793
6	0xbd9840a7	-0.074342065
7	0xbe385b9e	-0.18003699
8	0x3e2bddcd	0.16783829
9	0xbcd0e7b7	-0.025501115
10	0x3dc85ac4	0.09782937
11	0xbd243620	-0.04009068
12	0x3e1b7bff	0.1518402
13	0x3dd5c7ac	0.10438475
14	0xbc13839e	-0.009003548

nncf_module.bn1.weight f4 [15]
0	0x3f800000	1.0
1	0x3f800000	1.0
2	0x3f800000	1.0
3	0x3f800000	1.0
4	0x3f800000	1.0
5	0x3f800000	1.0
6	0x3f800000	1.0
7	0x3f800000	1.0
8	0x3f800000	1.0
9	0x3f800000	1.0
10	0x3f800000	1.0
11	0x3f800000	1.0
12	0x3f800000	1.0
13	0x3f800000	1.0
14	0x3f800000	1.0

nncf_module.bn1.bias f4 [15]
0	0x00000000	0.0
1	0x00000000	0.0
2	0x00000000	0.0
3	0x00000000	0.0
4	0x00000000	0.0
5	0x00000000	0.0
6	0x00000000	0.0
7	0x00000000	0.0
8	0x00000000	0.0
9	0x00000000	0.0
10	0x00000000	0.0
11	0x00000000	0.0
12	0x00000000	0.0
13	0x00000000	0.0
14	0x00000000	0.0

nncf_module.bn1.running_mean f4 [15]
0	0x00000000	0.0
1	0x00000000	0.0
2	0x00000000	0.0
3	0x00000000	0.0
4	0x00000000	0.0
5	0x00000000	0.0
6	0x00000000	0.0
7	0x00000000	0.0
8	0x00000000	0.0
9	0x00000000	0.0
10	0x00000000	0.0
11	0x00000000	0.0
12	0x00000000	0.0
13	0x00000000	0.0
14	0x00000000	0.0

nncf_module.bn1.running_var f4 [15]
0	0x3f800000	1.0
1	0x3f800000	1.0
2	0x3f800000	1.0
3	0x3f800000	1.0
4	0x3f800000	1.0
5	0x3f800000	1.0
6	0x3f800000	1.0
7	0x3f800000	1.0
8	0x3f800000	1.0
9	0x3f800000	1.0
10	0x3f800000	1.0
11	0x3f800000	1.0
12	0x3f800000	1.0
13	0x3f800000	1.0
14	0x3f800000	1.0

nncf_module.convt1.weight f4 [15, 3, 2, 2]
0	0xbde3422e	-0.11096607
1	0x3e083fb2	0.13305548
2	0xbe7fd05a	-0.24981824
3	0xbdf85aee	-0.121267185
4	0x3d7d6082	0.061859615
5	0xbe1a2b40	-0.15055561
6	0xbe4d81ec	-0.20069093
7	0x3d06300d	0.03276067
8	0x3da244cd	0.07923279
9	0x3e369cf2	0.17833307
10	0xbd2716e8	-0.04079333
11	0xbe56282c	-0.20913762
12	0x3e5322af	0.206187
13	0x3da656e7	0.08122044
14	0xbd3277db	-0.043571334
15	0xbe11e5ef	-0.14247869
16	0x3d8f7577	0.070048265
17	0x3e4dd70e	0.20101568
18	0x3e147d70	0.14500976
19	0x3e2cb669	0.16866459
20	0x3de08907	0.10963636
21	0x3e8cbe08	0.27488732
22	0x3e225865	0.15854032
23	0xbdb044b9	-0.08606858
24	0x3dd62b9e	0.10457538
25	0x3e2c1a28	0.16806853
26	0xbe89880c	-0.26861608
27	0x3db0f142	0.08639766
28	0xbe4b5148	-0.19855225
29	0xbe7b126b	-0.24518745
30	0xbdae471a	-0.08509655
31	0xbe28eac2	-0.16495803
32	0xbe3b1c0b	-0.18272416
33	0xbe70a017	-0.2349857
34	0xbdf9e97b	-0.12202736
35	0x3e0a04b8	0.13478363
36	0x3e5a2254	0.21302158
37	0xbdc541ab	-0.09631666
38	0x3d2759fd	0.040857304
39	0x3e341f30	0.17590022
40	0x3e8222d4	0.25417197
41	0x3d878f6c	0.066191524
42	0x3e61ef3d	0.22063918
43	0xbe06a750	-0.13149762
44	0x3e2d587e	0.16928288
45	0xbe8dd5f7	-0.27702305
46	0xbddb7d9f	-0.1071732
47	0xbe125dfd	-0.14293666
48	0xbbae843b	-0.0053258217
49	0x3e3063dd	0.17225595
50	0x3da7c691	0.081921704
51	0xbe2fb1de	-0.17157695
52	0xbdd965d3	-0.106151246
53	0x3e92e65c	0.28691375
54	0xbe85f3bf	-0.26162526
55	0xbe551664	-0.20809323
56	0xbe436716	-0.19082293
57	0x3e9169ef	0.28401133
58	0x3e3104cf	0.1728699
59	0xbc22cc07	-0.009936339
60	0x3d0f9333	0.03505249
61	0xbe390a86	-0.1807042
62	0xbe8842fa	-0.266136
63	0xbcd73c00	-0.026273727
64	0xbdcacb9b	-0.09902116
65	0x3dbc2c3b	0.09188124
66	0xbe593b4a	-0.21214023
67	0xbdab2fae	-0.083587036
68	0x3e4ee315	0.20203812
69	0xbe894849	-0.26812962
70	0x3c50d32b	0.012745659
71	0x3e841c59	0.25802878
72	0x3e118f6c	0.14214867
73	0xbd9b197f	-0.07573222
74	0xbc9bbd5b	-0.01901119
75	0x3e44f764	0.19234997
76	0xbe6064e4	-0.21913487
77	0xbe052bad	-0.13004942
78	0x3e7a0223	0.24414878
79	0xbd905f26	-0.07049398
80	0xbe2d076c	-0.16897362
81	0xbe1447ee	-0.14480564
82	0xbe86a6b7	-0.26299068
83	0x3e0f8a6a	0.14017645
84	0xbe88f94d	-0.267527
85	0x3e095d55	0.1341451
86	0x3caf42af	0.021394102
87	0xbc7a96fa	-0.015294785
88	0x3dc92e35	0.098232664
89	0xba3f8dd2	-0.00073072047
90	0xbe8c77b5	-0.2743508
91	0x3e77de6c	0.24205941
92	0x3cb4b39d	0.022058303
93	0xbe923bd3	-0.28561267
94	0xbc6c70ae	-0.014431162
95	0x3e43b9e7	0.19113885
96	0xbe4c8bb8	-0.19975173
97	0x3e5c8e0f	0.21538566
98	0x3d4a0a6e	0.049326353
99	0xbe0836f0	-0.13302207
100	0xbd97909c	-0.07400629
101	0xbe116d91	-0.14201953
102	0xbdd06b3f	-0.101767056
103	0xbe8d5069	-0.2760041
104	0x3e555c01	0.20835878
105	0xbde6d620	-0.1127131
106	0x3e6783bd	0.22608848
107	0x3d7abb18	0.061213583
108	0x3e0137fa	0.1261901
109	0x3d2d6d15	0.042340357
110	0xbe203d63	-0.15648417
111	0xbe11b142	-0.14227775
112	0xbe8eabb2	-0.27865368
113	0xbd55ebcd	-0.05222683
114	0xbe693f73	-0.2277811
115	0xbe69c493	-0.22828893
116	0xbd9b4ae5	-0.075826444
117	0xbdd0545f	-0.101723425
118	0x3e33352e	0.17500755
119	0xbe74f82c	-0.23922795
120	0x3b5f8cb1	0.0034110958
121	0x3e7ec185	0.2487851
122	0x3d8c741c	0.068580836
123	0x3e1a05d4	0.15041286
124	0xbce3e8c8	-0.02782096
125	0x3d84cb24	0.064840585
126	0xbe0e2894	-0.13882667
127	0xbe43b055	-0.19110234
128	0x3e00193c	0.12509626
129	0xbe8c1121	-0.27356818
130	0x3e8f88e6	0.28034133
131	0x3e5c0494	0.21486121
132	0x3e0f66ba	0.14004031
133	0xbe6ecfa1	-0.23321392
134	0xbd486d15	-0.048932154
135	0x3e82a5da	0.2551716
136	0xbe6eaa96	-0.23307261
137	0xbe827557	-0.25480148
138	0x3c09552b	0.008382122
139	0xbd595944	-0.053063646
140	0xbe80a53f	-0.25126073
141	0xbba4d88d	-0.0050306977
142	0x3caf014c	0.021362923
143	0xbe40d6d4	-0.1883195
144	0xbddaaf38	-0.106779516
145	0x3e45c62a	0.19313875
146	0xbe8fbe5a	-0.28074914
147	0x3e5698cf	0.2095673
148	0x3e1ec5af	0.15505098
149	0xbbce7992	-0.0063011134
150	0x3e7c5c1b	0.2464451
151	0x3e07a396	0.13245997
152	0xbcfc2739	-0.030780422
153	0xbc7eb55c	-0.015546169
154	0x3dc54cc9	0.09633786
155	0x3d4dc698	0.050238222
156	0xbe90e5fe	-0.2830047
157	0xbe8f0e78	-0.27940726
158	0xbe8425fa	-0.25810224
159	0xbc0b6ac8	-0.008509345
160	0x3c179d3d	0.009253797
161	0xbe36fe1c	-0.17870373
162	0x3e6a661d	0.22890516
163	0xbe7bd6ba	-0.2459363
164	0x3e8cfc81	0.27536395
165	0x3ca52a1a	0.020161677
166	0x3e3c8a1d	0.18412061
167	0x3e4930f9	0.19647588
168	0xbe771290	-0.24128175
169	0x3e5f3825	0.21798761
170	0x3e3387e3	0.17532305
171	0xbe0c33a5	-0.13691576
172	0x3d5744bb	0.05255578
173	0x3e489eda	0.19591847
174	0x3e7e29b2	0.24820593
175	0xbdc0d1a9	-0.094149895
176	0x3dfd705e	0.12374948
177	0x3e6f614b	0.23376958
178	0xbe297683	-0.16549115
179	0x3e38e28b	0.1805517

nncf_module.convt1.bias f4 [3]
0	0xbe2577f2	-0.16159037
1	0x3d7e8231	0.06213588
2	0x3e522353	0.20521288

nncf_module.conv2.weight f4 [10, 18, 1, 1]
0	0xbd4ab46b	-0.049488466
1	0xbd96a809	-0.07356269
2	0xbd86eb1a	-0.06587811
3	0xbd538763	-0.051642787
4	0x3db68817	0.08912676
5	0x3dd79935	0.10527269
6	0x3da2518f	0.07925712
7	0x3d9e56da	0.07731409
8	0x3c93a591	0.018023284
9	0xbdaccc87	-0.08437448
10	0x3e4135e2	0.18868211
11	0x3e3da919	0.18521537
12	0xbe344bd0	-0.17607045
13	0x3d841441	0.064491756
14	0x3e34df22	0.17663243
15	0xbe09aa5f	-0.13443898
16	0x3e3a93aa	0.18220392
17	0x3d9be1e5	0.07611445
18	0x3be12482	0.006870807
19	0xbe17fa30	-0.14841533
20	0xbe4669bc	-0.19376272
21	0xbe280c5b	-0.16410963
22	0xbe2d6e1c	-0.16936535
23	0xbdd485c8	-0.10377079
24	0x3e21f776	0.15817055
25	0x3e306ee5	0.17229803
26	0x3d33ae08	0.04386714
27	0x3e568ece	0.20952913
28	0xbcf8f0f1	-0.030388327
29	0xbc0695c7	-0.008214421
30	0x3e0f66c4	0.14004046
31	0xbe3f5bae	-0.18687317
32	0x3e6ec881	0.23318674
33	0xbe28ba5b	-0.16477339
34	0xbe1b4719	-0.1516384
35	0xbe477005	-0.19476326
36	0x3e51344e	0.20430109
37	0x3e0a9730	0.13534236
38	0xbdd9e9ac	-0.106402725
39	0x3db98012	0.090576306
40	0xbe5bcc4b	-0.2146465
41	0x3df23854	0.1182715
42	0x3d094db8	0.033521384
43	0xbd7354cf	-0.05940705
44	0x3e1a6171	0.15076233
45	0x3b17a868	0.002314115
46	0xbe30e7c6	-0.17275915
47	0xbe10b65b	-0.14132063
48	0xbe50aafb	-0.20377724
49	0xbd92317c	-0.07138345
50	0x3e0ce5fd	0.13759609
51	0xbe174d21	-0.14775516
52	0x3b8463a1	0.004040197
53	0xbd1d0e6a	-0.038343824
54	0x3e1e0ade	0.15433833
55	0xbdeb29bf	-0.11482572
56	0xbd8d80af	-0.0690931
57	0x3e5a1f4a	0.21300998
58	0xbe66936d	-0.22517176
59	0x3e214ff5	0.15753157
60	0xbd4195ab	-0.047261875
61	0x3dcdab3f	0.10042428
62	0xbe51a5e4	-0.20473439
63	0xbe14a6e4	-0.14516789
64	0x3e2e6c10	0.1703341
65	0x3d5a59b4	0.053308204
66	0x3e1375ab	0.14400356
67	0xbe62db9e	-0.2215409
68	0x3e29c57e	0.16579244
69	0x3e5d106c	0.21588296
70	0xbe1f8805	-0.15579231
71	0xbb1bc586	-0.0023768856
72	0x3e2e91ee	0.17047855
73	0xbd2b9300	-0.041888237
74	0xbccce300	-0.025010586
75	0x3e329c91	0.17442538
76	0x3e018b53	0.12650804
77	0xbd746020	-0.059661984
78	0xbe2a8736	-0.16653141
79	0x3c4fda05	0.012686257
80	0x3e40e570	0.18837523
81	0xbe5da8c4	-0.2164641
82	0x3e107f9d	0.1411118
83	0x3e58d2b4	0.21174127
84	0xbda66ae0	-0.081258535
85	0xbe630494	-0.22169715
86	0x3dcd3c9d	0.10021327
87	0x3db9610f	0.090517156
88	0xbe5c60c4	-0.21521288
89	0x3e185de7	0.14879571
90	0xbe31957e	-0.17342183
91	0x3e420666	0.18947753
92	0x3da78722	0.081800714
93	0xbcfeb351	-0.031091364
94	0x3d97809e	0.07397579
95	0xbe570f83	-0.21002011
96	0xbe327096	-0.1742576
97	0x3e54f3bb	0.20796101
98	0xbdb3fd59	-0.087885566
99	0xbe388831	-0.18020703
100	0x3e22eec9	0.15911402
101	0x3dc43d10	0.09581959
102	0xbcd0971d	-0.025462681
103	0x3d9409dc	0.07228443
104	0x3e5498b5	0.20761378
105	0xbdb09302	-0.086217895
106	0xbd34348f	-0.043995436
107	0x3e040e0e	0.12895986
108	0x3dfa22e2	0.122136846
109	0x3e089530	0.1333816
110	0xbd3fa9d8	-0.046792835
111	0x3e134722	0.14382604
112	0x3e00ec7d	0.12590213
113	0xbe16cf40	-0.14727497
114	0xbe38492f	-0.17996667
115	0xbe56fed8	-0.20995653
116	0xbe2a68f2	-0.16641596
117	0x3d8aadab	0.06771406
118	0xbd91cfc1	-0.07119704
119	0xbe5ffae2	-0.21873048
120	0xbd26ec3b	-0.04075263
121	0x3e13e732	0.14443663
122	0xbd1e27ab	-0.03861205
123	0xbe107c81	-0.14109994
124	0xbe4652d7	-0.19367538
125	0x3d8421d6	0.06451766
126	0xbcf01f45	-0.029311785
127	0xbe1ea853	-0.15493898
128	0xbd1226c2	-0.035681494
129	0x3e4719a1	0.1944337
130	0xbe47d5a7	-0.19515096
131	0xbe65171b	-0.22372095
132	0xbe50b242	-0.203805
133	0xbe280f1a	-0.16412011
134	0x3dbaecdd	0.09127209
135	0x3e341929	0.17587723
136	0x3df07b93	0.1174232
137	0x3d2c0996	0.04200133
138	0xbdd78862	-0.1052406
139	0x3e2a843c	0.16652006
140	0x3e176ce6	0.14787635
141	0x3e5f5427	0.21809445
142	0x3e208b38	0.15678108
143	0x3e60e632	0.21962813
144	0x3d2a7eba	0.041624762
145	0xbe592557	-0.2120565
146	0x3e6985e9	0.22804989
147	0x3e70f14f	0.23529552
148	0xbe529b05	-0.20566948
149	0x3dea1b96	0.11431043
150	0xbe1b9c74	-0.15196401
151	0x3dc6d8f1	0.09709347
152	0x3df71b37	0.12065738
153	0xbdf90a4b	-0.12160166
154	0x3da94080	0.082642555
155	0xbbf64cb6	-0.007516469
156	0xbe118aff	-0.14213179
157	0xbda67dbf	-0.08129453
158	0xbcd73886	-0.02627207
159	0x3e072b5a	0.13200131
160	0xbcce3b20	-0.025174677
161	0xbe174c63	-0.14775233
162	0xbe0596e3	-0.1304584
163	0xbd9dbd30	-0.077021
164	0xbc8f0e89	-0.017462986
165	0xbc931004	-0.017951973
166	0x3e66ce0d	0.2253954
167	0x3e5d185d	0.21591325
168	0xbe252f14	-0.1613124
169	0x3a358349	0.0006924165
170	0xbe008bf6	-0.12553391
171	0xbde2433a	-0.11047979
172	0x3d227667	0.0396637
173	0x3d7c6bc0	0.061626196
174	0xbe4cab00	-0.19987106
175	0xbe083d3b	-0.13304608
176	0x3d9ea82b	0.07746919
177	0x3e31b6e6	0.17354926
178	0x3e23a4c3	0.1598082
179	0xbdf89943	-0.12138607

nncf_module.conv2.bias f4 [10]
0	0x3cbfe67b	0.023425331
1	0x3e41ed35	0.18938144
2	0xbd2f3542	-0.0427754
3	0x3d8a0f95	0.06741253
4	0x3911e653	0.0001391408
5	0xbd05ba04	-0.0326481
6	0x3e4e40fb	0.20141976
7	0xbcb00361	-0.021485986
8	0x3cb1d420	0.021707594
9	0xbd44f9d1	-0.048089806
